…
ers.Dense(5, activation=&#39;swish&#39;)(H) # 처음에는 주석처리! H = tf.keras.layers.Dense(5, activation=&#39;swish&#39;)(H) # 처음에는 주석처리! Y = tf.keras.layers.Dense(1)(H) # 종속변수의 col model = tf.keras.models.Model(X, Y) model.compile(loss=&#39;mse&#39;) # MSE(Mean squared error) . model.summary() . Model: &#34;model_3&#34; _________________________________________________________________ Layer (type) Output Shape Param # ================================================================= input_4 (InputLayer) [(None, 13)] 0 _________________________________________________________________ dense_13 (Dense) (None, 200) 2800 _________________________________________________________________ dense_14 (Dense) (None, 5) 1005 _________________________________________________________________ dense_15 (Dense) (None, 5) 30 _________________________________________________________________ dense_16 (Dense) (None, 5) 30 _________________________________________________________________ dense_17 (Dense) (None, 5) 30 _________________________________________________________________ dense_18 (Dense) (None, 1) 6 ================================================================= Total params: 3,901 Trainable params: 3,901 Non-trainable params: 0 _________________________________________________________________ . plot_model(model) . model.fit(독립, 종속, epochs=1000, verbose=0) model.fit(독립, 종속, epochs=10) . Epoch 1/10 16/16 [==============================] - 0s 1ms/step - loss: 7.7405 Epoch 2/10 16/16 [=======
…
